…
9696, 0.10111237579286037], 'sens': [0.8202563503519625, 0.8735020021500306, 0.8885229580472642, 0.8966689669803886, 0.9024332567701953], 'loss': [0.17342430566917966, 0.13392729285731664, 0.1220678161909718, 0.11563198370958765, 0.11113599371116904], 'espec': [0.028870824286393815, 0.02403844574438139, 0.02241259005779445, 0.021534086913695155, 0.020883613924218173]})\n_________________________________________________________________\nLayer (type)                 Output Shape              Param #\n=================================================================\ninput_1 (InputLayer)         (None, 11933)             0\n_________________________________________________________________\ndropout_1 (Dropout)          (None, 11933)             0\n_________________________________________________________________\ndense_1 (Dense)              (None, 400)               4773600\n_________________________________________________________________\nleaky_re_lu_1 (LeakyReLU)    (None, 400)               0\n_________________________________________________________________\ndropout_2 (Dropout)          (None, 400)               0\n_________________________________________________________________\ndense_2 (Dense)              (None, 200)               80200\n_________________________________________________________________\nleaky_re_lu_2 (LeakyReLU)    (None, 200)               0\n_________________________________________________________________\ndropout_3 (Dropout)          (None, 200)               0\n_________________________________________________________________\ndense_3 (Dense)              (None, 100)               20100\n_________________________________________________________________\nleaky_re_lu_3 (LeakyReLU)    (None, 100)               0\n_________________________________________________________________\nbatch_normalization_1 (Batch (None, 100)               400\n_________________________________________________________________\ngaussian_noise_1 (GaussianNo (None, 100)               0\n_________________________________________________________________\ndropout_4 (Dropout)          (None, 100)               0\n_________________________________________________________________\ndropout_5 (Dropout)          (None, 100)               0\n_________________________________________________________________\ndense_4 (Dense)              (None, 200)               20200\n_________________________________________________________________\nleaky_re_lu_4 (LeakyReLU)    (None, 200)               0\n_________________________________________________________________\ndropout_6 (Dropout)          (None, 200)               0\n_________________________________________________________________\ndense_5 (Dense)              (None, 400)               80400\n_________________________________________________________________\ndense_6 (Dense)              (None, 3986)              1598386\n=================================================================\nTotal params: 6,573,286\nTrainable params: 6,573,086\nNon-trainable params: 200\n_________________________________________________________________\nPrinting model layers\nNLAYERS= 19\nLAYER type=dropout;name=dropout_1;drop_rate=0.000000\nLAYER type=dense;name=dense_1;activation=linear;in_dim=11933;out_dim=400;n_bias=400\nLAYER ty
…
vice.cc:1312] Adding visible gpu devices: 0\n2019-02-20 18:14:52.051737: I tensorflow/core/common_runtime/gpu/gpu_device.cc:993] Creating TensorFlow device (/job:localhost/replica:0/task:0/device:GPU:0 with 10415 MB memory) -&gt; physical GPU (device: 0, name: GeForce GTX 1080 Ti, pci bus id: 0000:02:00.0, compute capability: 6.1)\nGenerating an embedding (for testing)\n_________________________________________________________________\nLayer (type)                 Output Shape              Param #\n=================================================================\ninput_1 (InputLayer)         (None, 11933)             0\n_________________________________________________________________\ndropout_1 (Dropout)          (None, 11933)             0\n_________________________________________________________________\ndense_1 (Dense)              (None, 400)               4773600\n_________________________________________________________________\nleaky_re_lu_1 (LeakyReLU)    (None, 400)               0\n_________________________________________________________________\ndropout_2 (Dropout)          (None, 400)               0\n_________________________________________________________________\ndense_2 (Dense)              (None, 200)               80200\n_________________________________________________________________\nleaky_re_lu_2 (LeakyReLU)    (None, 200)               0\n_________________________________________________________________\ndropout_3 (Dropout)          (None, 200)               0\n_________________________________________________________________\ndense_3 (Dense)              (None, 100)               20100\n_________________________________________________________________\nleaky_re_lu_3 (LeakyReLU)    (None, 100)               0\n_________________________________________________________________\nbatch_normalization_1 (Batch (None, 100)               400\n=================================================================\nTotal params: 4,874,300\nTrainable params: 4,874,100\nNon-trainable params: 200\n_________________________________________________________________\n[[ 0.5779214  -1.1393576  -1.2145319   0.719882    1.152698    2.7561216\n   4.7062497  -1.9202161   1.4628897  -0.28924894 -5.909066   -3.8524284\n   0.89937544 -1.7450757  -1.624475
…
